{"modelTopology": {"backend": "tensorflow", "training_config": {"optimizer_config": {"class_name": "SGD", "config": {"nesterov": false, "decay": 0.0, "lr": 0.10000000149011612, "momentum": 0.8999999761581421}}, "loss_weights": {"policy_head": 0.5, "value_head": 0.5}, "sample_weight_mode": null, "loss": {"policy_head": "softmax_cross_entropy_with_logits", "value_head": "mean_squared_error"}, "metrics": null}, "keras_version": "2.1.2", "model_config": {"class_name": "Model", "config": {"output_layers": [["value_head", 0, 0], ["policy_head", 0, 0]], "name": "model_2", "input_layers": [["main_input", 0, 0]], "layers": [{"inbound_nodes": [], "class_name": "InputLayer", "name": "main_input", "config": {"dtype": "float32", "batch_input_shape": [null, 2, 3, 3], "name": "main_input", "sparse": false}}, {"inbound_nodes": [[["main_input", 0, 0, {}]]], "class_name": "Conv2D", "name": "conv2d_14", "config": {"trainable": true, "activation": "linear", "bias_regularizer": null, "strides": [1, 1], "kernel_regularizer": {"class_name": "L1L2", "config": {"l1": 0.0, "l2": 9.999999747378752e-05}}, "padding": "same", "filters": 75, "bias_constraint": null, "bias_initializer": {"class_name": "Zeros", "config": {}}, "kernel_initializer": {"class_name": "VarianceScaling", "config": {"seed": null, "mode": "fan_avg", "scale": 1.0, "distribution": "uniform"}}, "name": "conv2d_14", "activity_regularizer": null, "data_format": "channels_first", "use_bias": false, "kernel_size": [4, 4], "dilation_rate": [1, 1], "kernel_constraint": null}}, {"inbound_nodes": [[["conv2d_14", 0, 0, {}]]], "class_name": "BatchNormalization", "name": "batch_normalization_14", "config": {"trainable": true, "epsilon": 0.001, "beta_regularizer": null, "beta_initializer": {"class_name": "Zeros", "config": {}}, "moving_variance_initializer": {"class_name": "Ones", "config": {}}, "momentum": 0.99, "moving_mean_initializer": {"class_name": "Zeros", "config": {}}, "gamma_constraint": null, "gamma_regularizer": null, "axis": 1, "name": "batch_normalization_14", "gamma_initializer": {"class_name": "Ones", "config": {}}, "beta_constraint": null, "scale": true, "center": true}}, {"inbound_nodes": [[["batch_normalization_14", 0, 0, {}]]], "class_name": "LeakyReLU", "name": "leaky_re_lu_15", "config": {"trainable": true, "alpha": 0.30000001192092896, "name": "leaky_re_lu_15"}}, {"inbound_nodes": [[["leaky_re_lu_15", 0, 0, {}]]], "class_name": "Conv2D", "name": "conv2d_15", "config": {"trainable": true, "activation": "linear", "bias_regularizer": null, "strides": [1, 1], "kernel_regularizer": {"class_name": "L1L2", "config": {"l1": 0.0, "l2": 9.999999747378752e-05}}, "padding": "same", "filters": 75, "bias_constraint": null, "bias_initializer": {"class_name": "Zeros", "config": {}}, "kernel_initializer": {"class_name": "VarianceScaling", "config": {"seed": null, "mode": "fan_avg", "scale": 1.0, "distribution": "uniform"}}, "name": "conv2d_15", "activity_regularizer": null, "data_format": "channels_first", "use_bias": false, "kernel_size": [4, 4], "dilation_rate": [1, 1], "kernel_constraint": null}}, {"inbound_nodes": [[["conv2d_15", 0, 0, {}]]], "class_name": "BatchNormalization", "name": "batch_normalization_15", "config": {"trainable": true, "epsilon": 0.001, "beta_regularizer": null, "beta_initializer": {"class_name": "Zeros", "config": {}}, "moving_variance_initializer": {"class_name": "Ones", "config": {}}, "momentum": 0.99, "moving_mean_initializer": {"class_name": "Zeros", "config": {}}, "gamma_constraint": null, "gamma_regularizer": null, "axis": 1, "name": "batch_normalization_15", "gamma_initializer": {"class_name": "Ones", "config": {}}, "beta_constraint": null, "scale": true, "center": true}}, {"inbound_nodes": [[["batch_normalization_15", 0, 0, {}]]], "class_name": "LeakyReLU", "name": "leaky_re_lu_16", "config": {"trainable": true, "alpha": 0.30000001192092896, "name": "leaky_re_lu_16"}}, {"inbound_nodes": [[["leaky_re_lu_16", 0, 0, {}]]], "class_name": "Conv2D", "name": "conv2d_16", "config": {"trainable": true, "activation": "linear", "bias_regularizer": null, "strides": [1, 1], "kernel_regularizer": {"class_name": "L1L2", "config": {"l1": 0.0, "l2": 9.999999747378752e-05}}, "padding": "same", "filters": 75, "bias_constraint": null, "bias_initializer": {"class_name": "Zeros", "config": {}}, "kernel_initializer": {"class_name": "VarianceScaling", "config": {"seed": null, "mode": "fan_avg", "scale": 1.0, "distribution": "uniform"}}, "name": "conv2d_16", "activity_regularizer": null, "data_format": "channels_first", "use_bias": false, "kernel_size": [4, 4], "dilation_rate": [1, 1], "kernel_constraint": null}}, {"inbound_nodes": [[["conv2d_16", 0, 0, {}]]], "class_name": "BatchNormalization", "name": "batch_normalization_16", "config": {"trainable": true, "epsilon": 0.001, "beta_regularizer": null, "beta_initializer": {"class_name": "Zeros", "config": {}}, "moving_variance_initializer": {"class_name": "Ones", "config": {}}, "momentum": 0.99, "moving_mean_initializer": {"class_name": "Zeros", "config": {}}, "gamma_constraint": null, "gamma_regularizer": null, "axis": 1, "name": "batch_normalization_16", "gamma_initializer": {"class_name": "Ones", "config": {}}, "beta_constraint": null, "scale": true, "center": true}}, {"inbound_nodes": [[["leaky_re_lu_15", 0, 0, {}], ["batch_normalization_16", 0, 0, {}]]], "class_name": "Add", "name": "add_6", "config": {"trainable": true, "name": "add_6"}}, {"inbound_nodes": [[["add_6", 0, 0, {}]]], "class_name": "LeakyReLU", "name": "leaky_re_lu_17", "config": {"trainable": true, "alpha": 0.30000001192092896, "name": "leaky_re_lu_17"}}, {"inbound_nodes": [[["leaky_re_lu_17", 0, 0, {}]]], "class_name": "Conv2D", "name": "conv2d_17", "config": {"trainable": true, "activation": "linear", "bias_regularizer": null, "strides": [1, 1], "kernel_regularizer": {"class_name": "L1L2", "config": {"l1": 0.0, "l2": 9.999999747378752e-05}}, "padding": "same", "filters": 75, "bias_constraint": null, "bias_initializer": {"class_name": "Zeros", "config": {}}, "kernel_initializer": {"class_name": "VarianceScaling", "config": {"seed": null, "mode": "fan_avg", "scale": 1.0, "distribution": "uniform"}}, "name": "conv2d_17", "activity_regularizer": null, "data_format": "channels_first", "use_bias": false, "kernel_size": [4, 4], "dilation_rate": [1, 1], "kernel_constraint": null}}, {"inbound_nodes": [[["conv2d_17", 0, 0, {}]]], "class_name": "BatchNormalization", "name": "batch_normalization_17", "config": {"trainable": true, "epsilon": 0.001, "beta_regularizer": null, "beta_initializer": {"class_name": "Zeros", "config": {}}, "moving_variance_initializer": {"class_name": "Ones", "config": {}}, "momentum": 0.99, "moving_mean_initializer": {"class_name": "Zeros", "config": {}}, "gamma_constraint": null, "gamma_regularizer": null, "axis": 1, "name": "batch_normalization_17", "gamma_initializer": {"class_name": "Ones", "config": {}}, "beta_constraint": null, "scale": true, "center": true}}, {"inbound_nodes": [[["batch_normalization_17", 0, 0, {}]]], "class_name": "LeakyReLU", "name": "leaky_re_lu_18", "config": {"trainable": true, "alpha": 0.30000001192092896, "name": "leaky_re_lu_18"}}, {"inbound_nodes": [[["leaky_re_lu_18", 0, 0, {}]]], "class_name": "Conv2D", "name": "conv2d_18", "config": {"trainable": true, "activation": "linear", "bias_regularizer": null, "strides": [1, 1], "kernel_regularizer": {"class_name": "L1L2", "config": {"l1": 0.0, "l2": 9.999999747378752e-05}}, "padding": "same", "filters": 75, "bias_constraint": null, "bias_initializer": {"class_name": "Zeros", "config": {}}, "kernel_initializer": {"class_name": "VarianceScaling", "config": {"seed": null, "mode": "fan_avg", "scale": 1.0, "distribution": "uniform"}}, "name": "conv2d_18", "activity_regularizer": null, "data_format": "channels_first", "use_bias": false, "kernel_size": [4, 4], "dilation_rate": [1, 1], "kernel_constraint": null}}, {"inbound_nodes": [[["conv2d_18", 0, 0, {}]]], "class_name": "BatchNormalization", "name": "batch_normalization_18", "config": {"trainable": true, "epsilon": 0.001, "beta_regularizer": null, "beta_initializer": {"class_name": "Zeros", "config": {}}, "moving_variance_initializer": {"class_name": "Ones", "config": {}}, "momentum": 0.99, "moving_mean_initializer": {"class_name": "Zeros", "config": {}}, "gamma_constraint": null, "gamma_regularizer": null, "axis": 1, "name": "batch_normalization_18", "gamma_initializer": {"class_name": "Ones", "config": {}}, "beta_constraint": null, "scale": true, "center": true}}, {"inbound_nodes": [[["leaky_re_lu_17", 0, 0, {}], ["batch_normalization_18", 0, 0, {}]]], "class_name": "Add", "name": "add_7", "config": {"trainable": true, "name": "add_7"}}, {"inbound_nodes": [[["add_7", 0, 0, {}]]], "class_name": "LeakyReLU", "name": "leaky_re_lu_19", "config": {"trainable": true, "alpha": 0.30000001192092896, "name": "leaky_re_lu_19"}}, {"inbound_nodes": [[["leaky_re_lu_19", 0, 0, {}]]], "class_name": "Conv2D", "name": "conv2d_19", "config": {"trainable": true, "activation": "linear", "bias_regularizer": null, "strides": [1, 1], "kernel_regularizer": {"class_name": "L1L2", "config": {"l1": 0.0, "l2": 9.999999747378752e-05}}, "padding": "same", "filters": 75, "bias_constraint": null, "bias_initializer": {"class_name": "Zeros", "config": {}}, "kernel_initializer": {"class_name": "VarianceScaling", "config": {"seed": null, "mode": "fan_avg", "scale": 1.0, "distribution": "uniform"}}, "name": "conv2d_19", "activity_regularizer": null, "data_format": "channels_first", "use_bias": false, "kernel_size": [4, 4], "dilation_rate": [1, 1], "kernel_constraint": null}}, {"inbound_nodes": [[["conv2d_19", 0, 0, {}]]], "class_name": "BatchNormalization", "name": "batch_normalization_19", "config": {"trainable": true, "epsilon": 0.001, "beta_regularizer": null, "beta_initializer": {"class_name": "Zeros", "config": {}}, "moving_variance_initializer": {"class_name": "Ones", "config": {}}, "momentum": 0.99, "moving_mean_initializer": {"class_name": "Zeros", "config": {}}, "gamma_constraint": null, "gamma_regularizer": null, "axis": 1, "name": "batch_normalization_19", "gamma_initializer": {"class_name": "Ones", "config": {}}, "beta_constraint": null, "scale": true, "center": true}}, {"inbound_nodes": [[["batch_normalization_19", 0, 0, {}]]], "class_name": "LeakyReLU", "name": "leaky_re_lu_20", "config": {"trainable": true, "alpha": 0.30000001192092896, "name": "leaky_re_lu_20"}}, {"inbound_nodes": [[["leaky_re_lu_20", 0, 0, {}]]], "class_name": "Conv2D", "name": "conv2d_20", "config": {"trainable": true, "activation": "linear", "bias_regularizer": null, "strides": [1, 1], "kernel_regularizer": {"class_name": "L1L2", "config": {"l1": 0.0, "l2": 9.999999747378752e-05}}, "padding": "same", "filters": 75, "bias_constraint": null, "bias_initializer": {"class_name": "Zeros", "config": {}}, "kernel_initializer": {"class_name": "VarianceScaling", "config": {"seed": null, "mode": "fan_avg", "scale": 1.0, "distribution": "uniform"}}, "name": "conv2d_20", "activity_regularizer": null, "data_format": "channels_first", "use_bias": false, "kernel_size": [4, 4], "dilation_rate": [1, 1], "kernel_constraint": null}}, {"inbound_nodes": [[["conv2d_20", 0, 0, {}]]], "class_name": "BatchNormalization", "name": "batch_normalization_20", "config": {"trainable": true, "epsilon": 0.001, "beta_regularizer": null, "beta_initializer": {"class_name": "Zeros", "config": {}}, "moving_variance_initializer": {"class_name": "Ones", "config": {}}, "momentum": 0.99, "moving_mean_initializer": {"class_name": "Zeros", "config": {}}, "gamma_constraint": null, "gamma_regularizer": null, "axis": 1, "name": "batch_normalization_20", "gamma_initializer": {"class_name": "Ones", "config": {}}, "beta_constraint": null, "scale": true, "center": true}}, {"inbound_nodes": [[["leaky_re_lu_19", 0, 0, {}], ["batch_normalization_20", 0, 0, {}]]], "class_name": "Add", "name": "add_8", "config": {"trainable": true, "name": "add_8"}}, {"inbound_nodes": [[["add_8", 0, 0, {}]]], "class_name": "LeakyReLU", "name": "leaky_re_lu_21", "config": {"trainable": true, "alpha": 0.30000001192092896, "name": "leaky_re_lu_21"}}, {"inbound_nodes": [[["leaky_re_lu_21", 0, 0, {}]]], "class_name": "Conv2D", "name": "conv2d_21", "config": {"trainable": true, "activation": "linear", "bias_regularizer": null, "strides": [1, 1], "kernel_regularizer": {"class_name": "L1L2", "config": {"l1": 0.0, "l2": 9.999999747378752e-05}}, "padding": "same", "filters": 75, "bias_constraint": null, "bias_initializer": {"class_name": "Zeros", "config": {}}, "kernel_initializer": {"class_name": "VarianceScaling", "config": {"seed": null, "mode": "fan_avg", "scale": 1.0, "distribution": "uniform"}}, "name": "conv2d_21", "activity_regularizer": null, "data_format": "channels_first", "use_bias": false, "kernel_size": [4, 4], "dilation_rate": [1, 1], "kernel_constraint": null}}, {"inbound_nodes": [[["conv2d_21", 0, 0, {}]]], "class_name": "BatchNormalization", "name": "batch_normalization_21", "config": {"trainable": true, "epsilon": 0.001, "beta_regularizer": null, "beta_initializer": {"class_name": "Zeros", "config": {}}, "moving_variance_initializer": {"class_name": "Ones", "config": {}}, "momentum": 0.99, "moving_mean_initializer": {"class_name": "Zeros", "config": {}}, "gamma_constraint": null, "gamma_regularizer": null, "axis": 1, "name": "batch_normalization_21", "gamma_initializer": {"class_name": "Ones", "config": {}}, "beta_constraint": null, "scale": true, "center": true}}, {"inbound_nodes": [[["batch_normalization_21", 0, 0, {}]]], "class_name": "LeakyReLU", "name": "leaky_re_lu_22", "config": {"trainable": true, "alpha": 0.30000001192092896, "name": "leaky_re_lu_22"}}, {"inbound_nodes": [[["leaky_re_lu_22", 0, 0, {}]]], "class_name": "Conv2D", "name": "conv2d_22", "config": {"trainable": true, "activation": "linear", "bias_regularizer": null, "strides": [1, 1], "kernel_regularizer": {"class_name": "L1L2", "config": {"l1": 0.0, "l2": 9.999999747378752e-05}}, "padding": "same", "filters": 75, "bias_constraint": null, "bias_initializer": {"class_name": "Zeros", "config": {}}, "kernel_initializer": {"class_name": "VarianceScaling", "config": {"seed": null, "mode": "fan_avg", "scale": 1.0, "distribution": "uniform"}}, "name": "conv2d_22", "activity_regularizer": null, "data_format": "channels_first", "use_bias": false, "kernel_size": [4, 4], "dilation_rate": [1, 1], "kernel_constraint": null}}, {"inbound_nodes": [[["conv2d_22", 0, 0, {}]]], "class_name": "BatchNormalization", "name": "batch_normalization_22", "config": {"trainable": true, "epsilon": 0.001, "beta_regularizer": null, "beta_initializer": {"class_name": "Zeros", "config": {}}, "moving_variance_initializer": {"class_name": "Ones", "config": {}}, "momentum": 0.99, "moving_mean_initializer": {"class_name": "Zeros", "config": {}}, "gamma_constraint": null, "gamma_regularizer": null, "axis": 1, "name": "batch_normalization_22", "gamma_initializer": {"class_name": "Ones", "config": {}}, "beta_constraint": null, "scale": true, "center": true}}, {"inbound_nodes": [[["leaky_re_lu_21", 0, 0, {}], ["batch_normalization_22", 0, 0, {}]]], "class_name": "Add", "name": "add_9", "config": {"trainable": true, "name": "add_9"}}, {"inbound_nodes": [[["add_9", 0, 0, {}]]], "class_name": "LeakyReLU", "name": "leaky_re_lu_23", "config": {"trainable": true, "alpha": 0.30000001192092896, "name": "leaky_re_lu_23"}}, {"inbound_nodes": [[["leaky_re_lu_23", 0, 0, {}]]], "class_name": "Conv2D", "name": "conv2d_23", "config": {"trainable": true, "activation": "linear", "bias_regularizer": null, "strides": [1, 1], "kernel_regularizer": {"class_name": "L1L2", "config": {"l1": 0.0, "l2": 9.999999747378752e-05}}, "padding": "same", "filters": 75, "bias_constraint": null, "bias_initializer": {"class_name": "Zeros", "config": {}}, "kernel_initializer": {"class_name": "VarianceScaling", "config": {"seed": null, "mode": "fan_avg", "scale": 1.0, "distribution": "uniform"}}, "name": "conv2d_23", "activity_regularizer": null, "data_format": "channels_first", "use_bias": false, "kernel_size": [4, 4], "dilation_rate": [1, 1], "kernel_constraint": null}}, {"inbound_nodes": [[["conv2d_23", 0, 0, {}]]], "class_name": "BatchNormalization", "name": "batch_normalization_23", "config": {"trainable": true, "epsilon": 0.001, "beta_regularizer": null, "beta_initializer": {"class_name": "Zeros", "config": {}}, "moving_variance_initializer": {"class_name": "Ones", "config": {}}, "momentum": 0.99, "moving_mean_initializer": {"class_name": "Zeros", "config": {}}, "gamma_constraint": null, "gamma_regularizer": null, "axis": 1, "name": "batch_normalization_23", "gamma_initializer": {"class_name": "Ones", "config": {}}, "beta_constraint": null, "scale": true, "center": true}}, {"inbound_nodes": [[["batch_normalization_23", 0, 0, {}]]], "class_name": "LeakyReLU", "name": "leaky_re_lu_24", "config": {"trainable": true, "alpha": 0.30000001192092896, "name": "leaky_re_lu_24"}}, {"inbound_nodes": [[["leaky_re_lu_24", 0, 0, {}]]], "class_name": "Conv2D", "name": "conv2d_24", "config": {"trainable": true, "activation": "linear", "bias_regularizer": null, "strides": [1, 1], "kernel_regularizer": {"class_name": "L1L2", "config": {"l1": 0.0, "l2": 9.999999747378752e-05}}, "padding": "same", "filters": 75, "bias_constraint": null, "bias_initializer": {"class_name": "Zeros", "config": {}}, "kernel_initializer": {"class_name": "VarianceScaling", "config": {"seed": null, "mode": "fan_avg", "scale": 1.0, "distribution": "uniform"}}, "name": "conv2d_24", "activity_regularizer": null, "data_format": "channels_first", "use_bias": false, "kernel_size": [4, 4], "dilation_rate": [1, 1], "kernel_constraint": null}}, {"inbound_nodes": [[["conv2d_24", 0, 0, {}]]], "class_name": "BatchNormalization", "name": "batch_normalization_24", "config": {"trainable": true, "epsilon": 0.001, "beta_regularizer": null, "beta_initializer": {"class_name": "Zeros", "config": {}}, "moving_variance_initializer": {"class_name": "Ones", "config": {}}, "momentum": 0.99, "moving_mean_initializer": {"class_name": "Zeros", "config": {}}, "gamma_constraint": null, "gamma_regularizer": null, "axis": 1, "name": "batch_normalization_24", "gamma_initializer": {"class_name": "Ones", "config": {}}, "beta_constraint": null, "scale": true, "center": true}}, {"inbound_nodes": [[["leaky_re_lu_23", 0, 0, {}], ["batch_normalization_24", 0, 0, {}]]], "class_name": "Add", "name": "add_10", "config": {"trainable": true, "name": "add_10"}}, {"inbound_nodes": [[["add_10", 0, 0, {}]]], "class_name": "LeakyReLU", "name": "leaky_re_lu_25", "config": {"trainable": true, "alpha": 0.30000001192092896, "name": "leaky_re_lu_25"}}, {"inbound_nodes": [[["leaky_re_lu_25", 0, 0, {}]]], "class_name": "Conv2D", "name": "conv2d_25", "config": {"trainable": true, "activation": "linear", "bias_regularizer": null, "strides": [1, 1], "kernel_regularizer": {"class_name": "L1L2", "config": {"l1": 0.0, "l2": 9.999999747378752e-05}}, "padding": "same", "filters": 1, "bias_constraint": null, "bias_initializer": {"class_name": "Zeros", "config": {}}, "kernel_initializer": {"class_name": "VarianceScaling", "config": {"seed": null, "mode": "fan_avg", "scale": 1.0, "distribution": "uniform"}}, "name": "conv2d_25", "activity_regularizer": null, "data_format": "channels_first", "use_bias": false, "kernel_size": [1, 1], "dilation_rate": [1, 1], "kernel_constraint": null}}, {"inbound_nodes": [[["conv2d_25", 0, 0, {}]]], "class_name": "BatchNormalization", "name": "batch_normalization_25", "config": {"trainable": true, "epsilon": 0.001, "beta_regularizer": null, "beta_initializer": {"class_name": "Zeros", "config": {}}, "moving_variance_initializer": {"class_name": "Ones", "config": {}}, "momentum": 0.99, "moving_mean_initializer": {"class_name": "Zeros", "config": {}}, "gamma_constraint": null, "gamma_regularizer": null, "axis": 1, "name": "batch_normalization_25", "gamma_initializer": {"class_name": "Ones", "config": {}}, "beta_constraint": null, "scale": true, "center": true}}, {"inbound_nodes": [[["batch_normalization_25", 0, 0, {}]]], "class_name": "LeakyReLU", "name": "leaky_re_lu_26", "config": {"trainable": true, "alpha": 0.30000001192092896, "name": "leaky_re_lu_26"}}, {"inbound_nodes": [[["leaky_re_lu_25", 0, 0, {}]]], "class_name": "Conv2D", "name": "conv2d_26", "config": {"trainable": true, "activation": "linear", "bias_regularizer": null, "strides": [1, 1], "kernel_regularizer": {"class_name": "L1L2", "config": {"l1": 0.0, "l2": 9.999999747378752e-05}}, "padding": "same", "filters": 2, "bias_constraint": null, "bias_initializer": {"class_name": "Zeros", "config": {}}, "kernel_initializer": {"class_name": "VarianceScaling", "config": {"seed": null, "mode": "fan_avg", "scale": 1.0, "distribution": "uniform"}}, "name": "conv2d_26", "activity_regularizer": null, "data_format": "channels_first", "use_bias": false, "kernel_size": [1, 1], "dilation_rate": [1, 1], "kernel_constraint": null}}, {"inbound_nodes": [[["leaky_re_lu_26", 0, 0, {}]]], "class_name": "Flatten", "name": "flatten_3", "config": {"trainable": true, "name": "flatten_3"}}, {"inbound_nodes": [[["conv2d_26", 0, 0, {}]]], "class_name": "BatchNormalization", "name": "batch_normalization_26", "config": {"trainable": true, "epsilon": 0.001, "beta_regularizer": null, "beta_initializer": {"class_name": "Zeros", "config": {}}, "moving_variance_initializer": {"class_name": "Ones", "config": {}}, "momentum": 0.99, "moving_mean_initializer": {"class_name": "Zeros", "config": {}}, "gamma_constraint": null, "gamma_regularizer": null, "axis": 1, "name": "batch_normalization_26", "gamma_initializer": {"class_name": "Ones", "config": {}}, "beta_constraint": null, "scale": true, "center": true}}, {"inbound_nodes": [[["flatten_3", 0, 0, {}]]], "class_name": "Dense", "name": "dense_2", "config": {"trainable": true, "activation": "linear", "bias_regularizer": null, "kernel_regularizer": {"class_name": "L1L2", "config": {"l1": 0.0, "l2": 9.999999747378752e-05}}, "bias_constraint": null, "bias_initializer": {"class_name": "Zeros", "config": {}}, "name": "dense_2", "activity_regularizer": null, "kernel_initializer": {"class_name": "VarianceScaling", "config": {"seed": null, "mode": "fan_avg", "scale": 1.0, "distribution": "uniform"}}, "use_bias": false, "kernel_constraint": null, "units": 20}}, {"inbound_nodes": [[["batch_normalization_26", 0, 0, {}]]], "class_name": "LeakyReLU", "name": "leaky_re_lu_28", "config": {"trainable": true, "alpha": 0.30000001192092896, "name": "leaky_re_lu_28"}}, {"inbound_nodes": [[["dense_2", 0, 0, {}]]], "class_name": "LeakyReLU", "name": "leaky_re_lu_27", "config": {"trainable": true, "alpha": 0.30000001192092896, "name": "leaky_re_lu_27"}}, {"inbound_nodes": [[["leaky_re_lu_28", 0, 0, {}]]], "class_name": "Flatten", "name": "flatten_4", "config": {"trainable": true, "name": "flatten_4"}}, {"inbound_nodes": [[["leaky_re_lu_27", 0, 0, {}]]], "class_name": "Dense", "name": "value_head", "config": {"trainable": true, "activation": "tanh", "bias_regularizer": null, "kernel_regularizer": {"class_name": "L1L2", "config": {"l1": 0.0, "l2": 9.999999747378752e-05}}, "bias_constraint": null, "bias_initializer": {"class_name": "Zeros", "config": {}}, "name": "value_head", "activity_regularizer": null, "kernel_initializer": {"class_name": "VarianceScaling", "config": {"seed": null, "mode": "fan_avg", "scale": 1.0, "distribution": "uniform"}}, "use_bias": false, "kernel_constraint": null, "units": 1}}, {"inbound_nodes": [[["flatten_4", 0, 0, {}]]], "class_name": "Dense", "name": "policy_head", "config": {"trainable": true, "activation": "linear", "bias_regularizer": null, "kernel_regularizer": {"class_name": "L1L2", "config": {"l1": 0.0, "l2": 9.999999747378752e-05}}, "bias_constraint": null, "bias_initializer": {"class_name": "Zeros", "config": {}}, "name": "policy_head", "activity_regularizer": null, "kernel_initializer": {"class_name": "VarianceScaling", "config": {"seed": null, "mode": "fan_avg", "scale": 1.0, "distribution": "uniform"}}, "use_bias": false, "kernel_constraint": null, "units": 9}}]}}}, "weightsManifest": [{"paths": ["group1-shard1of1"], "weights": [{"dtype": "float32", "name": "batch_normalization_14/gamma", "shape": [75]}, {"dtype": "float32", "name": "batch_normalization_14/beta", "shape": [75]}, {"dtype": "float32", "name": "batch_normalization_14/moving_mean", "shape": [75]}, {"dtype": "float32", "name": "batch_normalization_14/moving_variance", "shape": [75]}]}, {"paths": ["group2-shard1of1"], "weights": [{"dtype": "float32", "name": "batch_normalization_15/gamma", "shape": [75]}, {"dtype": "float32", "name": "batch_normalization_15/beta", "shape": [75]}, {"dtype": "float32", "name": "batch_normalization_15/moving_mean", "shape": [75]}, {"dtype": "float32", "name": "batch_normalization_15/moving_variance", "shape": [75]}]}, {"paths": ["group3-shard1of1"], "weights": [{"dtype": "float32", "name": "batch_normalization_16/gamma", "shape": [75]}, {"dtype": "float32", "name": "batch_normalization_16/beta", "shape": [75]}, {"dtype": "float32", "name": "batch_normalization_16/moving_mean", "shape": [75]}, {"dtype": "float32", "name": "batch_normalization_16/moving_variance", "shape": [75]}]}, {"paths": ["group4-shard1of1"], "weights": [{"dtype": "float32", "name": "batch_normalization_17/gamma", "shape": [75]}, {"dtype": "float32", "name": "batch_normalization_17/beta", "shape": [75]}, {"dtype": "float32", "name": "batch_normalization_17/moving_mean", "shape": [75]}, {"dtype": "float32", "name": "batch_normalization_17/moving_variance", "shape": [75]}]}, {"paths": ["group5-shard1of1"], "weights": [{"dtype": "float32", "name": "batch_normalization_18/gamma", "shape": [75]}, {"dtype": "float32", "name": "batch_normalization_18/beta", "shape": [75]}, {"dtype": "float32", "name": "batch_normalization_18/moving_mean", "shape": [75]}, {"dtype": "float32", "name": "batch_normalization_18/moving_variance", "shape": [75]}]}, {"paths": ["group6-shard1of1"], "weights": [{"dtype": "float32", "name": "batch_normalization_19/gamma", "shape": [75]}, {"dtype": "float32", "name": "batch_normalization_19/beta", "shape": [75]}, {"dtype": "float32", "name": "batch_normalization_19/moving_mean", "shape": [75]}, {"dtype": "float32", "name": "batch_normalization_19/moving_variance", "shape": [75]}]}, {"paths": ["group7-shard1of1"], "weights": [{"dtype": "float32", "name": "batch_normalization_20/gamma", "shape": [75]}, {"dtype": "float32", "name": "batch_normalization_20/beta", "shape": [75]}, {"dtype": "float32", "name": "batch_normalization_20/moving_mean", "shape": [75]}, {"dtype": "float32", "name": "batch_normalization_20/moving_variance", "shape": [75]}]}, {"paths": ["group8-shard1of1"], "weights": [{"dtype": "float32", "name": "batch_normalization_21/gamma", "shape": [75]}, {"dtype": "float32", "name": "batch_normalization_21/beta", "shape": [75]}, {"dtype": "float32", "name": "batch_normalization_21/moving_mean", "shape": [75]}, {"dtype": "float32", "name": "batch_normalization_21/moving_variance", "shape": [75]}]}, {"paths": ["group9-shard1of1"], "weights": [{"dtype": "float32", "name": "batch_normalization_22/gamma", "shape": [75]}, {"dtype": "float32", "name": "batch_normalization_22/beta", "shape": [75]}, {"dtype": "float32", "name": "batch_normalization_22/moving_mean", "shape": [75]}, {"dtype": "float32", "name": "batch_normalization_22/moving_variance", "shape": [75]}]}, {"paths": ["group10-shard1of1"], "weights": [{"dtype": "float32", "name": "batch_normalization_23/gamma", "shape": [75]}, {"dtype": "float32", "name": "batch_normalization_23/beta", "shape": [75]}, {"dtype": "float32", "name": "batch_normalization_23/moving_mean", "shape": [75]}, {"dtype": "float32", "name": "batch_normalization_23/moving_variance", "shape": [75]}]}, {"paths": ["group11-shard1of1"], "weights": [{"dtype": "float32", "name": "batch_normalization_24/gamma", "shape": [75]}, {"dtype": "float32", "name": "batch_normalization_24/beta", "shape": [75]}, {"dtype": "float32", "name": "batch_normalization_24/moving_mean", "shape": [75]}, {"dtype": "float32", "name": "batch_normalization_24/moving_variance", "shape": [75]}]}, {"paths": ["group12-shard1of1"], "weights": [{"dtype": "float32", "name": "batch_normalization_25/gamma", "shape": [1]}, {"dtype": "float32", "name": "batch_normalization_25/beta", "shape": [1]}, {"dtype": "float32", "name": "batch_normalization_25/moving_mean", "shape": [1]}, {"dtype": "float32", "name": "batch_normalization_25/moving_variance", "shape": [1]}]}, {"paths": ["group13-shard1of1"], "weights": [{"dtype": "float32", "name": "batch_normalization_26/gamma", "shape": [2]}, {"dtype": "float32", "name": "batch_normalization_26/beta", "shape": [2]}, {"dtype": "float32", "name": "batch_normalization_26/moving_mean", "shape": [2]}, {"dtype": "float32", "name": "batch_normalization_26/moving_variance", "shape": [2]}]}, {"paths": ["group14-shard1of1"], "weights": [{"dtype": "float32", "name": "conv2d_14/kernel", "shape": [4, 4, 2, 75]}]}, {"paths": ["group15-shard1of1"], "weights": [{"dtype": "float32", "name": "conv2d_15/kernel", "shape": [4, 4, 75, 75]}]}, {"paths": ["group16-shard1of1"], "weights": [{"dtype": "float32", "name": "conv2d_16/kernel", "shape": [4, 4, 75, 75]}]}, {"paths": ["group17-shard1of1"], "weights": [{"dtype": "float32", "name": "conv2d_17/kernel", "shape": [4, 4, 75, 75]}]}, {"paths": ["group18-shard1of1"], "weights": [{"dtype": "float32", "name": "conv2d_18/kernel", "shape": [4, 4, 75, 75]}]}, {"paths": ["group19-shard1of1"], "weights": [{"dtype": "float32", "name": "conv2d_19/kernel", "shape": [4, 4, 75, 75]}]}, {"paths": ["group20-shard1of1"], "weights": [{"dtype": "float32", "name": "conv2d_20/kernel", "shape": [4, 4, 75, 75]}]}, {"paths": ["group21-shard1of1"], "weights": [{"dtype": "float32", "name": "conv2d_21/kernel", "shape": [4, 4, 75, 75]}]}, {"paths": ["group22-shard1of1"], "weights": [{"dtype": "float32", "name": "conv2d_22/kernel", "shape": [4, 4, 75, 75]}]}, {"paths": ["group23-shard1of1"], "weights": [{"dtype": "float32", "name": "conv2d_23/kernel", "shape": [4, 4, 75, 75]}]}, {"paths": ["group24-shard1of1"], "weights": [{"dtype": "float32", "name": "conv2d_24/kernel", "shape": [4, 4, 75, 75]}]}, {"paths": ["group25-shard1of1"], "weights": [{"dtype": "float32", "name": "conv2d_25/kernel", "shape": [1, 1, 75, 1]}]}, {"paths": ["group26-shard1of1"], "weights": [{"dtype": "float32", "name": "conv2d_26/kernel", "shape": [1, 1, 75, 2]}]}, {"paths": ["group27-shard1of1"], "weights": [{"dtype": "float32", "name": "dense_2/kernel", "shape": [9, 20]}]}, {"paths": ["group28-shard1of1"], "weights": [{"dtype": "float32", "name": "policy_head_1/kernel", "shape": [18, 9]}]}, {"paths": ["group29-shard1of1"], "weights": [{"dtype": "float32", "name": "value_head_1/kernel", "shape": [20, 1]}]}]}